…
, scale=0.5, seed=0, shear=0.0, show=False, show_boxes=True, show_conf=True, show_labels=True, simplify=True, single_cls=False, source=None, split=val, stream_buffer=False, task=detect, time=None, tracker=botsort.yaml, translate=0.1, val=True, verbose=True, vid_stride=1, visualize=False, warmup_bias_lr=0.1, warmup_epochs=3.0, warmup_momentum=0.8, weight_decay=0.0005, workers=16, workspace=None
Overriding model.yaml nc=80 with nc=4

                   from  n    params  module                                       arguments                     
  0                  -1  1      2784  ultralytics.nn.modules.conv.Conv             [3, 96, 3, 2]                 
  1                  -1  1    166272  ultralytics.nn.modules.conv.Conv             [96, 192, 3, 2]               
  2                  -1  2    389760  ultralytics.nn.modules.block.C3k2            [192, 384, 2, True, 0.25]     
  3                  -1  1   1327872  ultralytics.nn.modules.conv.Conv             [384, 384, 3, 2]              
  4                  -1  2   1553664  ultralytics.nn.modules.block.C3k2            [384, 768, 2, True, 0.25]     
  5                  -1  1   5309952  ultralytics.nn.modules.conv.Conv             [768, 768, 3, 2]              
  6                  -1  2   5022720  ultralytics.nn.modules.block.C3k2            [768, 768, 2, True]           
  7                  -1  1   5309952  ultralytics.nn.modules.conv.Conv             [768, 768, 3, 2]              
  8                  -1  2   5022720  ultralytics.nn.modules.block.C3k2            [768, 768, 2, True]           
  9                  -1  1   1476864  ultralytics.nn.modules.block.SPPF            [768, 768, 5]                 
 10                  -1  2   3264768  ultralytics.nn.modules.block.C2PSA           [768, 768, 2]                 
 11                  -1  1         0  torch.nn.modules.upsampling.Upsample         [None, 2, 'nearest']          
 12             [-1, 6]  1         0  ultralytics.nn.modules.conv.Concat           [1]                           
 13                  -1  2   5612544  ultralytics.nn.modules.block.C3k2            [1536, 768, 2, True]          
 14                  -1  1     74642  ultralytics.nn.modules.CBAM.myCBAM           [768]                         
 15                  -1  1         0  torch.nn.modules.upsampling.Upsample         [None, 2, 'nearest']          
 16             [-1, 4]  1         0  ultralytics.nn.modules.conv.Concat           [1]                           
 17                  -1  2   1700352  ultralytics.nn.modules.block.C3k2            [1536, 384, 2, True]          
 18                  -1  1     18938  ultralytics.nn.modules.CBAM.myCBAM           [384]                         
 19                  -1  1         0  torch.nn.modules.upsampling.Upsample         [None, 2, 'nearest']          
 20             [-1, 2]  1         0  ultralytics.nn.modules.conv.Concat           [1]                           
 21                  -1  2    426240  ultralytics.nn.modules.block.C3k2            [768, 192, 2, True]           
 22                  -1  1      4910  ultralytics.nn.modules.CBAM.myCBAM           [192]                         
 23                  -1  1    332160  ultralytics.nn.modules.conv.Conv             [192, 192, 3, 2]              
 24            [-1, 16]  1         0  ultralytics.nn.modules.conv.Concat           [1]                           
 25                  -1  2   1774080  ultralytics.nn.modules.block.C3k2            [1728, 384, 2, True]          
 26                  -1  1     18938  ultralytics.nn.modules.CBAM.myCBAM           [384]                         
 27                  -1  1   1327872  ultralytics.nn.modules.conv.Conv             [384, 384, 3, 2]              
 28            [-1, 13]  1         0  ultralytics.nn.modules.conv.Concat           [1]                           
 29                  -1  2   5317632  ultralytics.nn.modules.block.C3k2            [1152, 768, 2, True]          
 30                  -1  1     74642  ultralytics.nn.modules.CBAM.myCBAM           [768]                         
 31                  -1  1   5309952  ultralytics.nn.modules.conv.Conv             [768, 768, 3, 2]              
 32            [-1, 10]  1         0  ultralytics.nn.modules.conv.Concat           [1]                           
 33                  -1  2   5612544  ultralytics.nn.modules.block.C3k2            [1536, 768, 2, True]          
 34    [19, 22, 25, 28]  1   3636192  ultralytics.nn.modules.head.Detect           [4, [384, 192, 384, 1152]]    
YOLO11x summary: 485 layers, 60,088,966 parameters, 60,088,950 gradients

Transferred 1270/1278 items from pretrained weights
[34m[1mDDP:[0m debug command /usr/local/bin/python -m torch.distributed.run --nproc_per_node 2 --master_port 52119 /root/.config/Ultralytics/DDP/_temp_pivcgxmc139723518198480.py
Ultralytics 8.3.184 🚀 Python-3.11.12 torch-2.8.0.dev20250505+cu128 CUDA:0 (NVIDIA GeForce RTX 5090, 32120MiB)
…
